logs/model_trained_on_ModelNet40.pth (torch_old, 585409 bytes, 18 tensors)

ptnet.mlp1.0.weight f4 [64, 3, 1]
000000 64 11 9d 3e 54 ee 0a bf 28 47 49 3d 5d 9a 07 bf
       0.3067733 -0.5426991 0.049140126 -0.52969915
000010 ed 00 00 bf 0b f8 69 be e8 02 c1 3d 00 3d ef be
       -0.5000141 -0.22848527 0.094243824 -0.46726227
000020 19 cb 40 3e 5a 18 92 be 53 68 16 be 86 3b 8b bc
       0.18827476 -0.28534204 -0.14688234 -0.016996156
000030 13 c7 98 3e ea ff a4 be 8c c4 05 be 3a fb 61 be
       0.29839382 -0.32226497 -0.13063258 -0.22068492
000040 2d 0e eb be ad 4d 0e bf 1a 33 29 bd 1a 01 fc 3e
       -0.45909253 -0.55587274 -0.0413085 0.4921959
000050 b5 1e 22 3e e5 f8 28 be ed 4d b2 3e 1c 87 be 3d
       0.15832026 -0.16501196 0.34825078 0.09303114
000060 1d 71 e7 3e d4 11 ad 3e 40 c0 c1 3d 50 c8 06 be
       0.45203486 0.33802664 0.09460497 -0.1316235
000070 f0 4d 52 3e d9 33 00 bf 4c dd 78 be 3b bb 37 bc
       0.20537543 -0.50079113 -0.24303168 -0.011214073
000080 fe ff d3 be 26 fa 39 be 69 14 fb be 59 42 bf be
       -0.41406244 -0.1816183 -0.4903901 -0.37355307
000090 2e ad fe bd 0a 77 00 bf 3d 74 7b bd de 1e 9e bc
       -0.12435375 -0.5018164 -0.06139015 -0.019301828
0000a0 5a 03 9f 3e d5 da 57 be 1e f4 be bd 7e 9e 52 be
       0.31057245 -0.21079572 -0.093239054 -0.20568272
0000b0 ed 66 ee be a1 44 0e 3f b7 da e9 bd 16 d5 12 bf
       -0.465629 0.5557347 -0.1141867 -0.57356393
0000c0 4b d1 84 3e eb 91 21 3e 85 5d f0 be a2 49 17 bd
       0.25940928 0.1577832 -0.4694635 -0.036935456
0000d0 2a dc 87 be 96 54 04 bd cb 2e f1 3e 53 0f 00 3e
       -0.2653516 -0.03230723 0.47106013 0.12505846
0000e0 f6 b6 80 3e ef 84 0f bf da 76 26 3d 96 f5 d0 be
       0.25139588 -0.56062216 0.04064069 -0.40812367
0000f0 a9 fd 87 be ef a5 fd be 54 95 8d be c9 c4 fb be
       -0.26560715 -0.4954066 -0.2765299 -0.49173573
000100 bd e8 c4 3d 94 cd 9f 3e 73 15 a6 be 05 d6 0c bf
       0.09614704 0.3121153 -0.3243824 -0.5501407
000110 2c 89 b0 3e 26 1b e2 be db 26 d9 be 6f 5d 23 3e
       0.34479654 -0.44161338 -0.42412457 0.15953611
000120 0a a9 d1 3e e8 98 d0 3d bb 3e 9c 3e 7f 38 d4 be
       0.4094928 0.101854146 0.3051661 -0.41449353
000130 cb 09 92 bc 32 ae af bc 0a 4a 04 3f aa 35 18 3e
       -0.017826935 -0.021445367 0.51675475 0.14864221
000140 df d0 30 3e c1 c7 24 3e 48 6e 11 3f 0e d4 b4 3d
       0.17267178 0.16091825 0.568089 0.08829509
000150 2a 55 e7 be 07 b0 a4 3e 35 14 dc bd 28 b0 d0 bb
       -0.45182163 0.32165548 -0.10746042 -0.0063686557
000160 e8 1f 04 3f 52 c9 07 3f 8e c7 c0 be ab b5 9f bb
       0.51611185 0.53041565 -0.37652248 -0.0048739514
000170 87 30 fb be 98 07 00 bf 85 b4 14 be df 52 03 bf
       -0.4906046 -0.5001159 -0.14521988 -0.51298326
000180 9f 99 78 3e 3d 55 06 bf 66 d2 ec 3d 2d d2 d8 3e
       0.24277352 -0.52473813 0.11563568 0.4234785
000190 28 8b 0d 3f a4 67 d1 be 3e 18 06 3f 9e dd 62 be
       0.5529046 -0.40899384 0.5238074 -0.22154853
0001a0 6f 91 94 be 2e cd f5 3e 93 aa 19 3e 54 23 13 bf
       -0.29017207 0.48008102 0.15006475 -0.5747578
0001b0 da 60 50 be 9a b3 67 be 64 8b f6 3e c1 ff 29 bd
       -0.20349446 -0.22627106 0.48153222 -0.04150367
0001c0 de 59 a7 3d 88 79 80 be fe a1 9a be 55 f4 ef 3d
       0.08171438 -0.2509272 -0.30201715 0.117165245
0001d0 6c c2 ab be 1e 83 13 bf 96 ec ef 3e 85 78 4d 3e
       -0.3354677 -0.57621944 0.46860188 0.20065506
0001e0 52 2d c9 3e cf 9b 7c 3e f8 58 7e be f3 6c 0a bf
       0.3929239 0.24668811 -0.24838626 -0.54072493
0001f0 7a 48 b0 3e 09 85 d9 be 44 31 0a 3f 61 b1 bf 3e
       0.34430295 -0.4248431 0.53981423 0.37440017
000200 ea 28 cd bd f9 3a 11 3f 82 4d ca 3e 4d b5 d2 3e
       -0.10017569 0.5673061 0.3951226 0.41153947
000210 1b b1 f6 bd 72 72 21 be 48 b3 dc be fa f1 5b 3e
       -0.12045499 -0.15766314 -0.4310553 0.21479025
000220 7a a5 bb 3e 53 fc a1 bc e4 40 e1 be 44 fa 9b 3e
       0.36649686 -0.019773638 -0.4399482 0.30464375
000230 90 17 81 bd a5 57 13 3f 7e 18 28 3e 9e 44 12 bf
       -0.06303322 0.5755561 0.16415593 -0.5713595
000240 08 e7 01 3f d8 c0 03 3f 09 b7 73 3e b6 5c c1 3e
       0.5074315 0.5146613 0.23800291 0.37766045
000250 6c f0 96 bd 8a 20 da be 28 4c b0 be 91 5b 0d bf
       -0.073700756 -0.4260295 -0.34433103 -0.55217844
000260 ce f8 e0 3b 39 30 a6 bc 82 62 cf 3e 0d 60 3d 3e
       0.0068655973 -0.020286666 0.40504843 0.18493672
000270 42 b8 f9 be 9f 46 75 3e cf 64 26 3d 79 88 01 bf
       -0.4877339 0.23952721 0.040623482 -0.50598866
000280 ca d6 09 bf 70 30 63 3e 75 f5 9a be d2 8c 37 be
       -0.5384337 0.22186446 -0.30265394 -0.17924812
000290 58 f7 0a 3f 87 9b f5 3e a5 32 66 3e a7 2a 8d 3e
       0.54283667 0.4797022 0.22480257 0.27571604
0002a0 6c 2b 22 be 83 61 7f bd 10 63 3e 3d 0e 50 56 be
       -0.15836877 -0.062348854 0.046481192 -0.20928976
0002b0 1f ec f6 3e 38 b6 c2 bd b9 ee f5 be fc 52 c0 3e
       0.4822702 -0.09507412 -0.48033693 0.37563312
0002c0 e2 ef 82 be fb 0f 36 be cf 0b 71 be 5c 10 b9 3e
       -0.2557364 -0.17779534 -0.23539661 0.36145294
0002d0 24 b1 04 bf 04 21 ff 3e ad f9 16 3e 59 4a a0 3d
       -0.51832795 0.49829876 0.14743681 0.07826681
0002e0 d9 e4 14 3e f7 72 ae be a0 7a 08 3e 12 cf 51 be
       0.14540423 -0.34072086 0.13328028 -0.20489147
0002f0 d4 5d 24 3e 18 bd 08 bf d1 67 05 bf fc a0 9f 3e
       0.16051418 -0.53413534 -0.52111536 0.3117751

ptnet.mlp1.0.bias f4 [64]
000000 cb eb e1 be 58 63 e6 bd d9 0c 9e be e7 d9 76 3e
       -0.44125208 -0.11249417 -0.30869177 0.2410656
000010 b1 eb 0c bf da 51 0a be 8f f6 e1 3d 2b f9 fe 3e
       -0.55047137 -0.13507786 0.110333554 0.49799475
000020 93 f1 13 bf b2 34 ed 3e 40 a1 b7 bd 4e 1b 4d be
       -0.5779049 0.46329266 -0.08966303 -0.20029947
000030 d2 7a fd be 16 39 00 bf a0 b5 af bd 8e cc f9 be
       -0.49507767 -0.50087106 -0.08579564 -0.48788875
000040 c3 74 d9 3e 5a 28 07 3f 50 81 a7 be 25 e4 0a 3e
       0.42471895 0.52795947 -0.32715845 0.13563593
000050 a2 b7 c2 3e 92 f1 da 3e 87 58 02 3f 8b ad 2d be
       0.38030726 0.4276243 0.5091633 -0.16960733
000060 03 48 9e be 3b c4 cb be 75 71 8f 3e 9f 93 1e be
       -0.30914316 -0.3979815 0.28016248 -0.15486
000070 43 2b 1e be 1c 55 26 be 9c 43 91 3d a8 e6 92 be
       -0.1544619 -0.16243404 0.070929736 -0.28691602
000080 91 8b 2f be 76 e4 8a 3e a2 4c 59 3e a6 cd f0 3e
       -0.17143084 0.27127427 0.2122064 0.47031897
000090 9a e4 17 3d 6a 26 5c 3e 5f b8 5e 3e 81 38 0f 3f
       0.037083246 0.21499029 0.2175002 0.55945593
0000a0 58 64 bb be b9 fb ea be 94 a8 d0 3e 66 fe 23 3e
       -0.36599994 -0.45895174 0.40753615 0.16015014
0000b0 71 1a cd be 90 7d ed be 1d 37 75 3e ec 6b 79 be
       -0.40059236 -0.4638486 0.23946805 -0.24357575
0000c0 44 c1 25 3e 65 c3 0e 3f 96 22 a4 3e 75 fe e8 3e
       0.16187006 0.557669 0.32057637 0.45506635
0000d0 cf 99 41 3e bf 9f fc be eb 40 ed be 98 83 84 3e
       0.1890633 -0.49340627 -0.4633859 0.25881648
0000e0 ce 16 7c 3e 5e 1d ca be 02 51 cb be ea ad 9b 3e
       0.24618074 -0.3947553 -0.39710242 0.30406123
0000f0 7c 6c c4 be 44 41 96 be f5 72 80 3e aa 72 b9 be
       -0.38364017 -0.2934667 0.25087705 -0.36220294

ptnet.mlp1.1.weight f4 [64]
000000 09 b0 7e 3f 48 24 7f 3f 4d e0 80 3f 5c c3 76 3f
       0.9948736 0.99664736 1.0068451 0.96391845
000010 4c 35 82 3f 0f 63 7f 3f ce 88 7e 3f bc 66 7b 3f
       1.0172515 0.99760526 0.994275 0.98203635
000020 2b 4f 77 3f 79 66 81 3f af bb 7e 3f ce c2 7f 3f
       0.96605176 1.0109397 0.9950513 0.99906623
000030 2e ee 7e 3f df bc 7f 3f 7a 05 83 3f 51 4b 80 3f
       0.99582183 0.9989757 1.0236046 1.0022985
000040 01 e5 7d 3f 5f d6 81 3f 74 ac 80 3f 20 b8 80 3f
       0.9917756 1.0143546 1.0052629 1.005619
000050 e3 eb 7c 3f 7b 02 81 3f 1e 8e 7c 3f 2a 3e 7c 3f
       0.98797435 1.0078882 0.98654354 0.98532355
000060 08 fd 7c 3f 0e ac 82 3f 41 e1 80 3f 6d d2 7d 3f
       0.98823595 1.0208757 1.0068742 0.9914921
000070 ee aa 81 3f e1 92 81 3f df 27 7f 3f 0a b7 7b 3f
       1.0130289 1.0122949 0.99670213 0.9832617
000080 cc 91 7a 3f 17 3b 7c 3f 10 74 82 3f bb b5 81 3f
       0.9787872 0.98527664 1.019167 1.0133585
000090 d4 61 80 3f ca 35 80 3f b7 db 7b 3f 02 a3 82 3f
       1.0029855 1.0016415 0.98382133 1.0205996
0000a0 69 ce 7e 3f 5a fa 7b 3f 40 7d 80 3f 51 54 80 3f
       0.99533707 0.9842888 1.0038223 1.0025731
0000b0 8a 46 7d 3f 26 3f 7c 3f b5 11 80 3f 21 97 81 3f
       0.9893576 0.98533857 1.0005404 1.0124246
0000c0 15 ad 81 3f d5 08 80 3f 39 41 80 3f d8 3d 79 3f
       1.0130945 1.0002695 1.0019904 0.9735999
0000d0 7b d4 80 3f 93 19 7e 3f 4b 53 81 3f 41 70 81 3f
       1.0064844 0.99257773 1.0103544 1.0112382
0000e0 9f 2a 7c 3f 60 5d 7d 3f 97 3c 80 3f a4 80 81 3f
       0.98502535 0.98970604 1.001849 1.0117383
0000f0 b3 24 7f 3f 92 21 7f 3f 61 b2 7c 3f 9d 89 80 3f
       0.99665374 0.996606 0.98709685 1.0041996

ptnet.mlp1.1.bias f4 [64]
000000 89 05 d4 3b 3a 8c 9c 3c ae 40 38 3b 35 28 0a bd
       0.0064703864 0.019109834 0.0028114724 -0.03372975
000010 5f ad 48 3c d1 d9 86 3c 8f 68 39 bb 9c d6 a1 3a
       0.012248366 0.016461285 -0.0028291082 0.0012347284
000020 da ae 0e bb 11 4e 8f 39 fa 71 94 bb 9c 37 80 3c
       -0.00217717 0.0002733325 -0.0045301886 0.015651517
000030 f6 31 d1 3b b1 a2 a5 bc 6c 03 a5 bb 99 d4 fe 3b
       0.0063841296 -0.020219179 -0.0050358083 0.0077768085
000040 4c 13 c1 3b b2 5e 20 3d 49 e3 21 bc 61 a9 3c 3a
       0.005892193 0.03915281 -0.009880849 0.000719687
000050 8b e3 02 3c 3a c2 98 bc 54 5b 2a 3c c1 d8 b1 bb
       0.007988821 -0.018647302 0.010397751 -0.0054274504
000060 9f 79 3b bc 0b ea 71 3c 4e 85 52 3c 2c f5 7e 3c
       -0.011442571 0.014765273 0.012849165 0.015561383
000070 78 de 1b bc aa b0 d5 3c a6 45 d9 3b a0 db b9 bc
       -0.00951349 0.026085217 0.006630617 -0.022687733
000080 57 29 44 bc 17 41 90 bc cf 9d b6 3c fc 80 da 3c
       -0.011972747 -0.017609162 0.022292046 0.026672833
000090 27 13 8c bb da 55 5a bc b1 64 0e 3c 46 ca ae 3b
       -0.004274744 -0.013326133 0.008690999 0.0053341715
0000a0 ba be 22 3b 4e 78 92 bc 3a 3f 52 bb b7 d5 8d 3c
       0.002483292 -0.017879631 -0.0032081143 0.017313821
0000b0 a8 93 bd bb 90 6f e8 bc 12 26 0d bb 48 95 f3 3b
       -0.0057854243 -0.02837351 -0.0021537584 0.007433567
0000c0 50 22 b7 bb b0 f4 ff bb ee 6f 00 3d 41 88 87 3b
       -0.005588807 -0.0078111514 0.031356744 0.004136116
0000d0 7b 9d 17 bc 79 f4 50 bc 65 d9 ba 3c d5 86 a1 3a
       -0.009253855 -0.012753599 0.02280874 0.0012323508
0000e0 cf 12 9f bb 37 89 4e bc 8b ff fb 3b 7e c2 b0 3c
       -0.004854537 -0.012605957 0.007690375 0.021577116
0000f0 86 94 96 bb 82 eb f0 bb 05 6c c8 bb 08 73 d1 ba
       -0.004595342 -0.0073522935 -0.0061163926 -0.0015979717

ptnet.mlp1.1.running_mean f4 [64]
000000 86 df e1 be ef 8d e4 bd 4b d2 9d be fa 6b 77 3e
       -0.44115847 -0.11159884 -0.30824503 0.24162284
000010 e9 fe 0c bf 29 10 0a be 1a 53 e1 3d ca 89 ff 3e
       -0.5507646 -0.13482727 0.110021785 0.49909812
000020 19 4a 14 bf b7 34 ed 3e 40 7f b7 bd 07 e4 4c be
       -0.57925564 0.4632928 -0.08959818 -0.2000886
000030 64 2c fd be f7 48 00 bf 32 dd af bd fb 11 fa be
       -0.4944793 -0.50111336 -0.085871115 -0.48841843
000040 4c 28 d9 3e 30 29 07 3f 4b 07 a8 be be d8 0a 3e
       0.42413557 0.5279722 -0.32818064 0.13559243
000050 e0 b3 c2 3e 76 2c db 3e 8c 87 02 3f 02 eb 2c be
       0.3802786 0.42807359 0.5098808 -0.16886523
000060 2c 58 9e be b9 78 cb be de 26 8f 3e b1 a1 1e be
       -0.30926645 -0.39740542 0.2795934 -0.15491368
000070 13 79 1e be 24 db 26 be d1 b8 91 3d 97 b8 92 be
       -0.15475874 -0.16294533 0.07115329 -0.28656456
000080 a3 66 2f be bd 76 8a 3e 47 b4 58 3e 40 71 f0 3e
       -0.17128997 0.27043715 0.2116252 0.46961403
000090 eb 32 1c 3d 9b d4 5b 3e 3f 8a 5e 3e 1a 49 0f 3f
       0.038134497 0.21467821 0.21732424 0.5597092
0000a0 1a b0 bb be a2 3d eb be a0 38 d0 3e 2c d8 23 3e
       -0.36657792 -0.4594546 0.406682 0.16000432
0000b0 29 29 cd be 28 a8 ed be eb 89 75 3e 54 7b 7a be
       -0.40070465 -0.46417356 0.23978393 -0.24461108
0000c0 c5 5b 25 3e ce a9 0e 3f ed 6b a4 3e ed 3c e9 3e
       0.16148289 0.5572785 0.3211359 0.45554295
0000d0 7b 36 42 3e 71 21 fc be 11 f0 ec be 62 20 84 3e
       0.18966095 -0.49244264 -0.46276906 0.25805956
0000e0 f5 96 7c 3e 78 3b ca be 74 4b cb be 0e f7 9b 3e
       0.2466696 -0.39498496 -0.39706004 0.30461925
0000f0 be 3b c4 be 61 6a 96 be 7d 98 80 3e db b6 b8 be
       -0.3832683 -0.29378036 0.2511634 -0.36077008

ptnet.mlp1.1.running_var f4 [64]
000000 d6 76 a9 3c f5 9b ff 3c 3c 7b 5d 3c 84 8d a8 3b
       0.020686548 0.031202296 0.013518151 0.005143823
000010 09 f2 3a 3c 2e 11 09 3d 2e 39 7f 3c fe 85 10 3c
       0.011410245 0.03346365 0.015577598 0.008821009
000020 61 5b 8a 3c 3d 66 82 3c 1b 24 4a 3c bb fe c6 3c
       0.016889276 0.015917892 0.01233771 0.024291387
000030 a8 56 77 3c aa 0a e9 3b 13 e5 7f 3c f7 c2 0c 3d
       0.015096344 0.007111867 0.01561858 0.03436562
000040 a2 af 82 3c 18 96 85 3b 69 7b 7b 3c e4 eb c6 3c
       0.015952889 0.0040767305 0.0153492475 0.024282403
000050 5d 8a b7 3c a1 15 92 3c db 18 d7 3c f1 36 a3 3c
       0.022404844 0.01783258 0.02625697 0.019923659
000060 1d de 66 3c 77 7d 08 3c cc d0 82 3c 5c 5f a3 3c
       0.014091042 0.008330694 0.015968703 0.019942932
000070 72 4d 82 3c e2 9c 06 3d 88 c4 a4 3c 66 f7 e8 3c
       0.01590607 0.03286446 0.020113245 0.028438281
000080 38 d5 94 3c 46 22 04 3d 32 21 ae 3c cb 66 f2 3c
       0.018168077 0.03225925 0.021256063 0.029590031
000090 c4 b1 86 3c fa 01 73 3b 93 ca 33 3c f8 8e 00 3d
       0.016442187 0.0037080036 0.01097359 0.031386346
0000a0 e6 8e 5d 3c a3 23 ef 3c ea 01 b3 3c e2 5c 0f 3d
       0.013522839 0.029191798 0.021851499 0.03500069
0000b0 45 52 54 3c f6 18 1c 3c fe 27 6e 3c 38 e2 0c 3d
       0.012959068 0.0095274355 0.014535902 0.034395427
0000c0 5c f1 ff 3c 8b 22 8f 3c b4 31 b7 3c 9b 89 3f 3c
       0.031243019 0.017472526 0.022362567 0.011690523
0000d0 04 cb 73 3c 88 2b f3 3c 9f 4a af 3c 5e a1 98 3c
       0.014879946 0.029683843 0.021397887 0.018631633
0000e0 20 e6 c5 3a 2e 89 75 3c 8b 2d b1 3c 07 05 32 3c
       0.001509849 0.0149863195 0.021628162 0.010865456
0000f0 11 f6 ea 3c c0 2c f0 3b 2f ee 8b 3b 7f 3c 04 3d
       0.028681787 0.0073295534 0.004270337 0.032284256

ptnet.mlp2.0.weight f4 [128, 64, 1]
000000 79 72 ae bc db aa 10 bd 41 bc db 3c bd 33 b7 bb
       -0.02129482 -0.03531919 0.026823165 -0.0055908845
000010 56 1b ec bd e2 51 50 bc 2b 7f e7 bd 94 68 0e be
       -0.115286514 -0.012714835 -0.11303552 -0.13907081
000020 8c dc 6f bd 5d 4f 9e bd 0a 6a 9e bd 5f dc d7 bd
       -0.05855994 -0.07729981 -0.07735069 -0.10540079
000030 c0 51 e3 3d ae a6 8a 3d 26 b7 96 3d db 78 0d 3e
       0.11099577 0.06770073 0.073591515 0.13815634
000040 ea 40 02 3e ba c4 1d 3d 9a 0d da 3d c7 00 87 3c
       0.12720075 0.03851769 0.106471255 0.016479863
000050 98 4c b3 bc f1 f1 90 3d 09 44 f3 bd e1 c3 54 3d
       -0.021887109 0.07077397 -0.11878211 0.051944617
000060 a3 4a 91 3d f2 0e 37 bb 4e d9 1f bd ff 73 97 bd
       0.07094314 -0.0027932492 -0.039025597 -0.073951714
000070 f2 f7 80 3d 4b 9c 89 3d 45 40 5b bd 28 97 99 3d
       0.06297292 0.06719264 -0.05352809 0.07499534
000080 78 bd ef bd 8a e8 9f bd 7d d1 0d 3d 3c c0 a5 bd
       -0.1170606 -0.07808025 0.03462361 -0.080933064
000090 64 6c 01 ba 53 3b f4 3d 36 79 f7 bd 47 3b e1 bb
       -0.0004937111 0.11925378 -0.12083666 -0.0068735215
0000a0 fa 62 f4 3d 27 59 97 bd 02 7a ca bb 35 53 af bc
       0.11932941 -0.07390051 -0.0061790952 -0.02140198
0000b0 cb cf 86 3c fb 32 9e 3d 41 59 49 3d 64 d6 09 3e
       0.016456505 0.077245675 0.049157385 0.1346069
0000c0 3f 2d 50 3d a0 fa 30 bc 27 83 dd bd ec de 56 3b
       0.0508244 -0.010801941 -0.10816031 0.003278668
0000d0 7b 19 79 bd 1e 09 bc 3d 95 d0 9a bd 0b e1 9b 3d
       -0.060815316 0.091814265 -0.07559315 0.07611283
0000e0 ca a3 f3 bd c1 29 c2 3d 9c f7 97 bd e7 9f ae 3d
       -0.11896475 0.0948062 -0.074202746 0.08526593
0000f0 50 7a 19 be 95 3c cf bd 9c 39 e2 3d 0c e7 8b bd
       -0.14988065 -0.10118977 0.11046144 -0.06831178
000100 e4 a5 8c bd b0 4b c5 3c 4e e7 e4 bd 0e e7 7b bd
       -0.068675786 0.024083942 -0.1117693 -0.061499648
000110 d7 5d f0 bd cc 8d 82 3d 5e 35 c7 bd 8c fe 03 3e
       -0.117366485 0.06374702 -0.09726976 0.1289007
000120 8b 7e 2d 3c e8 ee b9 3d 17 9c 6d 3d 03 40 80 bd
       0.010589252 0.09078771 0.058010187 -0.06262209
000130 c4 d9 1b 3d 4f dd db 3c 4f 62 ff bd 10 4f d2 bc
       0.038049474 0.026838927 -0.12469923 -0.025672466
000140 59 97 5e bd 69 81 81 bc 5c b2 06 be e4 bd 97 bb
       -0.054343555 -0.015808778 -0.13153976 -0.004630791
000150 55 5a 9e 3d 3b 0f 89 ba 00 c2 ad 3d 68 3f e9 bd
       0.07732073 -0.001045681 0.08484268 -0.11389047
000160 51 e8 ae 3d 1f f0 e5 3d 57 1d c6 bd b3 79 5e bd
       0.085404046 0.1122744 -0.09673565 -0.05431528
000170 52 94 01 3e 55 99 6b 3d 26 00 b0 bd 06 16 ee bd
       0.12654236 0.057519276 -0.08593778 -0.116252944
000180 a1 b1 12 3b 99 9a 93 3d 6a 6c bb bd 73 28 94 3d
       0.0022383707 0.072072215 -0.09151538 0.072342776
000190 95 06 ab 3d ab 71 8b bd 2d b4 51 bd 6a 66 38 3c
       0.08350865 -0.0680879 -0.05119722 0.011254886
0001a0 b2 2d 1e bd f5 b8 ed bb 4a 67 dc 3d 49 c1 1c bd
       -0.038617797 -0.0072547146 0.10761888 -0.03827027
0001b0 9e 2a f6 bd 8e b5 d2 3b a8 1f c3 3d eb aa 4b 3d
       -0.12019847 0.0064303344 0.09527522 0.049723547
0001c0 2e 0c 89 3c 9a cf ce bd 1e 47 89 3d 91 41 e5 bc
       0.01672944 -0.100981906 0.06703018 -0.027985366
0001d0 1d 08 65 bd b4 50 93 3d 48 39 a0 3d 51 8e 90 bd
       -0.05591594 0.07193127 0.078234255 -0.07058395
0001e0 ac aa 09 3d 6b a3 67 3d c6 30 a0 3d 28 cd ca bd
       0.03361003 0.056552332 0.07821803 -0.09902412
0001f0 df 68 1e 3d 4c 0c 24 bd d4 0d ad 3d 8c 9f f2 bd
       0.03867423 -0.04005079 0.08449903 -0.118468374
000200 fe 8f 33 3d e2 f9 58 3c 7a 4c eb bd 28 52 55 3c
       0.043838494 0.01324317 -0.11489196 0.013020076
000210 d7 08 1d 3d de c0 03 3d 47 74 2d bd 6e dd 2b bd
       0.03833851 0.032166354 -0.04234722 -0.04195922
000220 3f 24 2a 3d 1d 35 09 bd 86 cd 00 be c0 43 d1 3d
       0.041538473 -0.03349792 -0.12578401 0.102180004
000230 e7 5f 3f bc 39 9c 0f be be 56 d5 bd 57 88 f8 3b
       -0.01168058 -0.14024438 -0.104169354 0.0075846124
000240 b4 8b 0d be 0a 1e 9d bd 50 98 0d bd a0 76 dd 3d
       -0.13822824 -0.07671745 -0.034569085 0.108136415
000250 c4 1b 8b bd 33 2f bc 3d 30 a7 19 bd 8d c9 a9 3d
       -0.06792405 0.0918869 -0.037512958 0.08290396
000260 7e a6 76 3d 44 3a 01 3e d1 73 bc 3d 01 e7 f6 bd
       0.060217373 0.12619883 0.09201778 -0.12055779
000270 f5 88 ee bd 13 6b cd bd 6c 5b a1 bd 7c 80 ba bd
       -0.11647216 -0.100301884 -0.078787655 -0.09106538
000280 7c 3f 19 3d 3f 86 eb 3c 9d 90 f6 bd c1 51 58 3d
       0.03741406 0.028750537 -0.120393015 0.05281234
000290 f1 7d 8b bd c2 62 5d 3c bb f0 27 3d ed f1 d2 3d
       -0.06811131 0.013512315 0.041001063 0.1030005
0002a0 08 b5 49 3d 1c 28 0d 3c 3b 81 f8 bd 81 06 89 3c
       0.04924491 0.00861552 -0.12134024 0.016726734
0002b0 b8 38 43 3d f9 10 45 3c 16 37 6f bd 78 35 1b 3d
       0.047661513 0.012027972 -0.058402143 0.03789279
0002c0 13 01 c1 bc 8c 82 c9 3d 5c 9a af 3d 74 fd ce 3c
       -0.023560083 0.09839353 0.085743636 0.02526734
0002d0 19 8f 96 3d 2c e4 c5 bd 65 4b 24 3b 1d d2 0f 3d
       0.073515125 -0.09662661 0.0025069353 0.03511249
0002e0 fa 9e 9f 3d 7b 37 df bd 49 8f 61 bd 19 ac 87 bd
       0.07793994 -0.10899254 -0.055068288 -0.06624622
0002f0 88 bb 34 bd c2 58 1c bc 0c de a0 3d cc 82 80 3c
       -0.044124156 -0.009542646 0.07854852 0.015687369
000300 dc a1 99 bd 7c 47 b3 3c a9 0c a7 3d 87 7b ba 3c
       -0.07501575 0.021884672 0.081567116 0.02276398
000310 10 ca fa bd d6 fb 8c bd d6 b3 69 3d c6 4c 56 3c
       -0.122455716 -0.068839714 0.05705627 0.013079828
000320 77 06 9d bd 22 18 0d 3d c9 05 4e 3d 93 6f de bd
       -0.07667249 0.034446843 0.050298486 -0.10861125
000330 35 b0 80 3d 66 4e c0 bd 10 dd d9 bd 4f d2 33 3d
       0.06283609 -0.09389953 -0.106378675 0.043901738
000340 0c f2 cb 3c 7a 6e db 3d cf a8 41 bd bb 43 46 bc
       0.02489569 0.10714431 -0.04728013 -0.012101109
000350 ef 42 c7 bd 30 7c 7f 3d 82 aa 1b bc c0 fd f3 bd
       -0.097295634 0.062374294 -0.009501101 -0.11913633
000360 11 b9 1c bd d9 cb d7 3d 8b 5d 40 3d 58 a4 c0 3d
       -0.03826243 0.10536928 0.04696421 0.09406346
000370 98 bb 5e bd 1e 73 17 3c ab 70 ae bd 53 8b a1 3d
       -0.054378122 0.009243755 -0.085175835 0.07887902
000380 f2 3f f6 bd f7 cc 45 bd 08 7e ed 3b e7 3b d0 bd
       -0.12023915 -0.048291173 0.00724769 -0.101676755
000390 03 8c e0 3c ec 4a e9 3d 2c 6d 48 bd 10 a3 de bd
       0.027410513 0.11391243 -0.04893224 -0.108709455
0003a0 8a 61 d1 bd 5c ab b2 bc e8 5a 54 bd 7d d5 3f bd
       -0.10223682 -0.021810226 -0.051844507 -0.046834458
0003b0 3f 59 20 3d 0c 87 8c 3c 0c 98 32 bc 34 8b 4e bd
       0.03914761 0.01715424 -0.010900509 -0.050425723
0003c0 11 7f 99 3c 86 16 cf 3d 2a e5 5d 3d d9 c0 4c 3c
       0.018737348 0.10111718 0.054173626 0.01249715
0003d0 1c 9f 51 3d ad 78 b9 3d 65 8b f3 3d 82 0c 0f bd
       0.05117713 0.0905622 0.11891822 -0.034924038
0003e0 12 8d 0a 3d 84 d3 0d bd 17 d2 c8 bc 36 7a 78 3d
       0.03382594 -0.034625545 -0.024514241 0.060663424
0003f0 f9 58 15 3d b9 6a aa bd 58 1e 98 bc 87 42 2a 3d
       0.036461804 -0.08321137 -0.018569157 0.04156735

ptnet.mlp2.0.bias f4 [128]
000000 5e c1 8d 3d 17 00 c4 bd f2 77 d6 3d f8 df 01 bd
       0.069216475 -0.0957033 0.104720965 -0.031707734
000010 85 bf c4 bd 80 1e ea bc 9c ca 26 3b e8 47 37 bd
       -0.09606842 -0.028578997 0.0025450354 -0.04474631
000020 ae f0 06 bd 88 5c b0 bd 3d ac 9a 3d cb 02 8d bd
       -0.032944374 -0.08611399 0.07552383 -0.06885298
000030 56 aa 06 3d 22 5c 0b be fd d6 ce 3d c7 72 86 bd
       0.03287729 -0.13609365 0.100995995 -0.06564861
000040 a7 84 7a bd 8c 73 d4 3c 7c 54 80 bd 6b 17 35 3d
       -0.061161663 0.025934003 -0.06266114 0.044211786
000050 36 d6 51 bd d9 c2 0d 3e be 9b cc 3d 3c b9 78 bd
       -0.051229678 0.1384386 0.09990643 -0.06072353
000060 73 fe b6 bc e7 2c 07 be 4b e0 20 bd 61 6a 18 3c
       -0.022338128 -0.13200723 -0.039276402 0.009302706
000070 ec 5e cf bd c5 ec 83 3d fc 39 e0 3d eb 50 82 bc
       -0.10125527 0.064416446 0.1094856 -0.015907725
000080 d4 d8 f0 bd 71 f0 75 bd ed 1d 13 bc 23 ee 60 bd
       -0.11760107 -0.060043756 -0.008979303 -0.054914605
000090 69 5e 79 3c 81 5f 03 3d 7b 0b 23 bd 82 b3 da 3d
       0.015220263 0.0320735 -0.03980587 0.1067877
0000a0 d6 80 b8 bb 4e 0a f7 3d ce bb da 3d 2a e9 45 3d
       -0.005630593 0.12062512 0.10680352 0.048318066
0000b0 57 a3 2c bd a5 fb 16 bd 4c b3 d0 3d 28 9a 7a 3d
       -0.04214796 -0.03686108 0.10190448 0.06118217
0000c0 83 64 2c 3d 5f b0 ce 3d d3 bd 9f bd ae 35 1b 3c
       0.042088043 0.10092234 -0.07799878 0.009473247
0000d0 90 f0 ae 3c df 91 53 bd 39 43 87 3d 67 68 9c bd
       0.021354944 -0.051652785 0.066046186 -0.07637101
0000e0 1f 5c f0 bd db 10 a2 3d 71 1b 02 3e a3 35 7c bd
       -0.11736321 0.07913371 0.1270578 -0.06157459
0000f0 07 28 01 bd e6 71 77 3d ef b0 a3 bd 62 28 a0 bd
       -0.031532314 0.060411356 -0.07992732 -0.078202024
000100 b2 94 20 3d 0a 92 c6 bd 21 2c 8d bc 50 aa 64 3d
       0.039204307 -0.096958235 -0.017232956 0.055826485
000110 27 7a 32 bd bf 6f 35 bd a2 d3 05 3d 8e ec a4 bd
       -0.043573525 -0.044296023 0.032672532 -0.08052932
000120 c1 6d bb 3d ce 97 b6 3d fa 01 9e 3d 66 cb a0 3d
       0.09151793 0.08915673 0.07715221 0.07851295
000130 01 db 9f 3d 22 89 c0 bc 58 6d bb bc af 21 98 3d
       0.078054436 -0.02350289 -0.022879288 0.074283
000140 63 fd b8 3d 82 99 ff bb bf 77 5f bd ba 58 9b 3d
       0.09032705 -0.007800282 -0.05455756 0.075852826
000150 cc ee cf bd b7 5b cc bd e9 29 54 bd 35 4c c0 3c
       -0.10152969 -0.09978431 -0.05179778 0.023473838
000160 72 c2 84 3c 58 05 96 bd 09 43 26 bc aa 45 9e bc
       0.016206 -0.07325238 -0.010147818 -0.019320328
000170 0c bc 02 3e 48 36 d8 bc 32 5d fb 3d 2a f5 f1 bd
       0.12767047 -0.02639307 0.12273635 -0.118143395
000180 c0 f7 3a bd 8b 56 56 bc c4 63 b3 bd 94 c8 b9 3d
       -0.04564643 -0.013082157 -0.08759263 0.0907146
000190 91 7a 90 3d 3b cc 69 bd 3a 16 55 3c 16 a9 30 3d
       0.07054628 -0.057079535 0.0130057875 0.043130003
0001a0 bf 65 d0 bd b5 95 d0 bd 35 89 d1 3d 9a 61 46 3c
       -0.101756565 -0.10184804 0.10231248 0.012108231
0001b0 a6 45 e9 bb e5 82 be bb 61 5d 21 bd f3 c8 4e 3d
       -0.0071188984 -0.0058139437 -0.039395694 0.05048461
0001c0 1e 6f 85 bc 0c 36 2f 3d a5 2f 0c 3e f5 28 d9 bd
       -0.016288336 0.042776152 0.1369005 -0.10603515
0001d0 82 41 e3 3d 7e 21 62 3d bf b8 c8 3d 32 ae 67 3b
       0.11096479 0.055207722 0.098008625 0.0035351631
0001e0 73 47 02 be 99 99 82 bd 6c e4 48 bd 89 fe 8f 3d
       -0.12722568 -0.06376953 -0.049045965 0.070309706
0001f0 1e b4 02 3d f5 38 23 bd 73 a0 8c 3d 80 08 48 bc
       0.031910054 -0.03984924 0.06866541 -0.012209058

ptnet.mlp2.1.weight f4 [128]
000000 0b 2f 80 3f 3d f1 7e 3f e7 87 81 3f ec c2 7c 3f
       1.0014356 0.9958685 1.0119599 0.9873493
000010 b8 62 80 3f 17 4d 80 3f 7f 44 7f 3f f0 52 81 3f
       1.0030127 1.0023526 0.9971389 1.0103436
000020 e3 b6 7e 3f 8d ee 7d 3f 51 f2 7e 3f a0 8f 7e 3f
       0.99497813 0.99192125 0.99588495 0.99437904
000030 75 c4 7f 3f 32 17 7d 3f 09 34 7e 3f 4e 8b 82 3f
       0.99909145 0.9886352 0.9929815 1.0198762
000040 31 27 80 3f 7b f0 82 3f 3e c6 80 3f 12 12 7c 3f
       1.001196 1.0229639 1.0060499 0.98465073
000050 99 45 80 3f 4d 54 80 3f 5e f2 7d 3f 6f 48 7a 3f
       1.002124 1.0025727 0.9919795 0.97766775
000060 00 db 81 3f 07 fd 7c 3f 09 1a 7e 3f 2d db 7f 3f
       1.0144958 0.9882359 0.99258476 0.9994381
000070 92 64 80 3f a7 f1 79 3f c1 7f 80 3f b0 97 7b 3f
       1.0030692 0.9763436 1.0038987 0.9827833
000080 42 6f 81 3f 5c c8 80 3f 0d 77 80 3f f8 a3 80 3f
       1.0112078 1.0061145 1.0036331 1.0050039
000090 29 fb 7a 3f 60 aa 80 3f 4b e3 7c 3f d3 4b 7c 3f
       0.9803949 1.0051994 0.9878432 0.985532
0000a0 01 11 7c 3f 39 74 7a 3f 00 4b 7e 3f 42 55 81 3f
       0.98463446 0.9783359 0.9933319 1.0104144
0000b0 8c 75 82 3f 1e 86 81 3f 0f 3e 82 3f 43 4f 81 3f
       1.0192122 1.0119054 1.0175189 1.0102314
0000c0 85 47 7b 3f d0 ab 79 3f 72 88 7c 3f 6c 9f 7f 3f
       0.98156005 0.9752779 0.986457 0.99852633
0000d0 59 db 7b 3f a5 81 82 3f 2c 3f 7d 3f 9c b2 7d 3f
       0.9838157 1.0195814 0.9892452 0.9910066
0000e0 ca 5b 81 3f e6 1d 7d 3f 39 9a 80 3f 1d a4 80 3f
       1.0106137 0.98873746 1.0047065 1.0050083
0000f0 10 1b 80 3f cc 4f 81 3f 7c 90 78 3f e3 c5 81 3f
       1.0008259 1.0102477 0.97095466 1.0138515
000100 b0 ba 80 3f 90 7d 7d 3f 45 b7 7a 3f 9a fa 7d 3f
       1.0056973 0.9901972 0.979359 0.9921051
000110 5d 38 83 3f e1 e0 80 3f ea b6 7b 3f 13 10 7b 3f
       1.0251576 1.0068628 0.9832598 0.980714
000120 0f a3 81 3f 39 b2 80 3f 4a 5f 81 3f ab da 7d 3f
       1.0127887 1.0054389 1.0107205 0.99161786
000130 af af 80 3f 77 2a 7f 3f 04 e7 7b 3f d3 e9 7b 3f
       1.0053614 0.9967417 0.98399377 0.9840366
000140 2c 6d 7e 3f b7 63 7c 3f c3 37 80 3f c0 d9 7f 3f
       0.99385333 0.9858965 1.0017017 0.99941635
000150 d3 75 7d 3f 1d b0 7c 3f 64 83 83 3f b5 d6 7a 3f
       0.9900791 0.9870623 1.0274472 0.97983867
000160 be f7 7b 3f 98 84 7f 3f 75 84 7d 3f 65 09 82 3f
       0.984249 0.99811697 0.9903024 1.0159117
000170 04 08 7b 3f a0 84 7a 3f 05 43 82 3f ca e2 80 3f
       0.98059106 0.9785862 1.0176703 1.006921
000180 72 16 81 3f 22 b4 7e 3f 4d b4 7b 3f 48 f3 7c 3f
       1.0084975 0.9949361 0.9832199 0.9880872
000190 2c a4 7f 3f 18 a3 7b 3f 7d a4 7f 3f 29 1b 83 3f
       0.9985988 0.98295736 0.99860364 1.0242664
0001a0 83 11 80 3f 65 c5 80 3f 42 1d 7e 3f 6c be 80 3f
       1.0005344 1.006024 0.99263394 1.0058112
0001b0 61 f9 7b 3f 4b 5b 7f 3f 4f f3 80 3f 15 82 79 3f
       0.98427397 0.99748677 1.0074252 0.97464114
0001c0 5d c9 81 3f 23 68 80 3f 32 18 83 3f c8 2e 80 3f
       1.0139576 1.003178 1.0241759 1.0014277
0001d0 77 18 81 3f e7 c5 80 3f f3 67 7e 3f 49 07 81 3f
       1.0085591 1.0060395 0.99377364 1.0080348
0001e0 98 59 7d 3f 49 9e 7e 3f 95 1a 7a 3f e7 f0 7b 3f
       0.98964834 0.99460274 0.9769681 0.9841446
0001f0 f1 f0 7c 3f 1a e4 7c 3f eb 28 81 3f c3 23 80 3f
       0.9880515 0.98785555 1.0090612 1.0010914

ptnet.mlp2.1.bias f4 [128]
000000 fa d2 28 bc b4 42 95 ba 34 66 58 bc 45 26 3a 3c
       -0.010304207 -0.0011387677 -0.013207961 0.011361663
000010 51 54 bd ba 66 44 67 bc e7 81 c4 3b bc 56 47 3c
       -0.0014444684 -0.014115429 0.005996931 0.012166675
000020 35 4b 8f 3c 57 c8 b3 bc ba 52 05 bb 72 68 1a bc
       0.017491916 -0.021946115 -0.0020343498 -0.009424316
000030 8f 7c 06 bb b0 a3 ab bc 05 a8 7b bc c6 45 96 3c
       -0.002052102 -0.020952076 -0.015359883 0.018343817
000040 63 16 6a 3c 68 14 fc ba fa f9 c4 3b 47 fe e6 bb
       0.014287564 -0.0019232156 0.006011245 -0.007049355
000050 e1 d9 fa 3c 52 bd bf 3c 55 a9 e5 3b c7 ac 2e bc
       0.03062147 0.023405705 0.0070087113 -0.0106613105
000060 ff 3a 8a 3b e4 ae 5e bc 08 fc b3 ba 1d de ca bb
       0.0042184587 -0.013591502 -0.0013731727 -0.0061910287
000070 7c 9f a7 bb fb 5e 79 3a bd 35 fb 3b 30 ef 1f bc
       -0.0051154476 0.00095127494 0.007666318 -0.009761617
000080 7e 0b 87 bb c7 c7 6c bc b2 ea ae 3b 1b 9f d2 bb
       -0.004121243 -0.0144519275 0.0053380365 -0.0064276583
000090 78 20 e6 3b 4a 0a 24 bc 1b 94 4c 3c c7 4e 27 3c
       0.0070229135 -0.010012219 0.012486483 0.010211653
0000a0 44 a7 94 3c 51 72 29 bb d6 ca 4e 3c f0 27 23 bc
       0.018146165 -0.0025855491 0.012621602 -0.009958252
0000b0 dc cd 91 bb d2 90 e2 bb 3f 0b 5b 3b 39 93 49 3c
       -0.004449589 -0.0069142366 0.0033423451 0.012303167
0000c0 a3 5a 62 bc fd 31 06 3c 04 46 4b 3c 7f 8f 06 3c
       -0.013815555 0.008190629 0.01240683 0.008212923
0000d0 e2 b6 9b bb 9e 3d 49 bb 3b f5 98 bc 5e 4f 90 bc
       -0.004752026 -0.0030706893 -0.018671622 -0.01761597
0000e0 76 e9 c7 bc f9 1b 43 bc b7 3a bc 3c f6 cc e7 3b
       -0.024403315 -0.011908525 0.022977216 0.007073994
0000f0 21 a9 c8 bb a0 d5 ad bb 7b af db bb bd dd 3c bb
       -0.0061236774 -0.005305007 -0.0067042685 -0.002881869
000100 cf c4 04 ba 75 fb 4f bb 30 b3 8f bb b2 d7 16 3b
       -0.0005064727 -0.0031735573 -0.0043853745 0.0023016748
000110 ad f1 76 3b a6 65 0d 3c 2e ce 56 bc 5e 0f b6 3a
       0.003768067 0.008630192 -0.0131106805 0.0013890078
000120 dc 98 6e 3c 3a 77 c1 bb a1 bc 4a 3c 6a 0c ab bb
       0.014562812 -0.0059041055 0.012374074 -0.0052199857
000130 8e ef 3b bb 01 af 53 39 04 91 85 bc 99 ae 64 bc
       -0.0028676721 0.00020187722 -0.0163045 -0.013957643
000140 3b 5d d3 38 a2 d5 89 bc c8 6f a6 3c b1 90 09 ba
       0.000100786296 -0.0168255 0.020316973 -0.0005247696
000150 05 43 4c bc cc 45 e7 3a 62 b9 e6 3c 73 87 26 bc
       -0.012467151 0.0017644702 0.02816457 -0.01016413
000160 2d c0 15 bc 40 96 88 3c 01 df 27 3c be 42 27 bc
       -0.009140057 0.016673207 0.010246039 -0.010208784
000170 55 b6 0b 3c c6 1d 96 3c 8b 15 83 3c 4e 4e bc ba
       0.008527358 0.018324744 0.016001483 -0.0014366598
000180 5a 35 84 3c ca 7b 43 bc 29 42 c5 3b 50 7b cc bc
       0.016138721 -0.011931369 0.00601985 -0.024961144
000190 69 5f 9c bb ed 6f 62 3c 29 a3 22 bc b6 e7 73 3c
       -0.004772116 0.0138206305 -0.009926596 0.014886787
0001a0 e4 e5 bb 3b 23 58 f9 39 8f 82 a9 3a 3c d7 cd 3c
       0.005734192 0.00047558648 0.0012932586 0.025127046
0001b0 73 52 a7 bb ee 93 3b bb 29 5c e9 3c e7 c7 9a 3a
       -0.0051062643 -0.0028622109 0.028486328 0.0011808843
0001c0 7c d5 a1 bc 1b 04 fc 3c ff 47 85 3c ad 5c 11 3c
       -0.019755118 0.030763676 0.016269682 0.008872193
0001d0 2f 80 62 3b 03 88 0a bb c9 eb 58 bb f4 71 07 bb
       0.0034561267 -0.0021138198 -0.0033099523 -0.0020667287
0001e0 54 a6 0e bc 13 9a c5 bb 78 ee 97 3b 7a eb 19 bc
       -0.008706648 -0.00603033 0.004636582 -0.009394521
0001f0 b0 ba b3 3b 62 9c 1c bc 0d 83 8b 3c f6 fc 44 3b
       0.0054849014 -0.009558769 0.017030263 0.0030058003

ptnet.mlp2.1.running_mean f4 [128]
000000 20 58 e3 ba 83 c3 41 be 0c 37 82 bd a4 4c 15 be
       -0.0017344989 -0.18922238 -0.063581556 -0.14580017
000010 3f f2 06 be cc a5 2c be be de 66 be 5d a8 38 3e
       -0.13178347 -0.16860121 -0.22545907 0.18032975
000020 d4 9d d2 bc 0c 2a 1a bf 01 70 b8 3d 7d c4 91 3e
       -0.025710024 -0.6022041 0.09005738 0.2847022
000030 88 c4 b0 3e 84 c1 21 bf 65 04 22 bd 6b 16 22 3e
       0.3452494 -0.63185906 -0.039554972 0.15828864
000040 dc 87 5e 3e 4f fd 4e 3f 65 c2 93 3e 50 a2 7b 3e
       0.21731514 0.8085527 0.2885925 0.24573636
000050 5f 1a 87 3e 3d b8 9c 3e 2f 77 02 3f bb 0e 5e 3e
       0.26387307 0.30609313 0.5096311 0.21685307
000060 cd 7e d8 bd 1d 92 11 3e 48 3a 33 be 8d b4 c6 3e
       -0.1057106 0.14215894 -0.17502701 0.38809624
000070 38 40 06 be 1f 8c 65 3e 52 55 bf 3d 0c 3b 70 3e
       -0.13110435 0.22416733 0.093424454 0.23460025
000080 7d d5 9f bd f3 a9 33 be 67 14 3c 3d f4 6a 8d 3e
       -0.078043915 -0.17545299 0.045917895 0.2762066
000090 15 22 de 3e 20 90 bd 3d 28 24 4a 3e 8c 67 30 bb
       0.43385378 0.09256005 0.19740355 -0.0026917187
0000a0 55 29 9b 3e 9d 6a bd 3d 89 bd 3f 3f 50 8d 18 be
       0.3030497 0.092488505 0.7489858 -0.14897656
0000b0 66 4d c8 bd 46 11 d7 3c 41 38 07 bf 88 36 53 3f
       -0.097803876 0.026253354 -0.5282021 0.82505083
0000c0 98 64 1a bd fe b1 ef 3d f4 d4 7d bc 90 d6 da 3d
       -0.03769359 0.11703871 -0.0154926665 0.10685456
0000d0 a3 79 7b 3d 6a e8 00 3f 10 f4 b7 3e 16 12 1e bf
       0.0613953 0.50354636 0.35928392 -0.61746347
0000e0 be 87 25 be fb df 90 3d 9d 06 ca 3e 3a 3c 5b be
       -0.16165063 0.07073971 0.3945817 -0.21409693
0000f0 fd ad 6a be 8b 8e 1b 3f 98 5c 8d be 9e 32 8d be
       -0.22917934 0.6076438 -0.27609706 -0.2757768
000100 49 a4 63 3e b9 e2 f5 bd cd 63 79 3e df 1d 0b 3f
       0.22230639 -0.120061345 0.24354477 0.54342455
000110 b4 c3 cb 3e 27 bb 1f bc 58 48 15 3e 69 a3 94 3e
       0.39797747 -0.00974921 0.14578378 0.29030922
000120 66 d6 ca 3e 70 6b dd 3b 51 73 18 3f 9d 59 d2 be
       0.39616698 0.0067571923 0.5955096 -0.41083995
000130 1a 7b a6 3e e6 90 16 3e b1 5e 19 3e 96 27 30 3e
       0.32515794 0.14703712 0.14977528 0.17202601
000140 0f f2 77 3e ce 95 e7 bd 6e 4e 8d bd ac 25 a5 be
       0.24213432 -0.1130787 -0.06899725 -0.32255304
000150 58 33 46 bd 95 54 25 be a9 c0 a0 3e 2f e5 8f bd
       -0.04838881 -0.16145547 0.31396988 -0.07026135
000160 05 5c 13 bd 24 65 0a 3e 71 19 24 be 44 f0 e8 bd
       -0.03597643 0.13515145 -0.1602533 -0.11373952
000170 25 a4 22 bd a5 62 09 3f d0 80 08 3d 6f 22 3d be
       -0.03970732 0.53666145 0.03332597 -0.18470167
000180 57 b9 10 bf 16 e6 a7 be 90 dc a0 be 1d 48 03 bf
       -0.56532806 -0.3279273 -0.31418276 -0.5128191
000190 32 4c ad bd 62 ec eb 3e c1 b1 88 be d7 77 b3 3c
       -0.08461799 0.46078783 -0.26698115 0.02190773
0001a0 53 69 0e be 77 ac 85 bd 34 5c bb 3e 4f 30 bb bd
       -0.13907366 -0.06527036 0.36593783 -0.091400735
0001b0 89 8e aa be 0c 25 3e be f0 d8 4c 3f c1 b4 5f be
       -0.3331187 -0.1856882 0.8001852 -0.21846296
0001c0 55 55 4b be 12 17 b8 3d 66 59 16 3f 41 8a 6e 3e
       -0.1985677 0.08988775 0.5873016 0.23294927
0001d0 a3 48 c9 be 49 b8 cb 3e 89 67 f5 3e 8d 01 f4 3d
       -0.3931323 0.39789036 0.47930554 0.11914358
0001e0 10 a3 6e be d5 f1 e1 bd 4a e3 49 3e 8e 18 dd 3d
       -0.23304391 -0.11032454 0.1971561 0.10795699
0001f0 af f5 ae 3d a6 c5 f8 be a0 52 de 3e db ad 39 bd
       0.08542954 -0.48588294 0.43422413 -0.045331817

ptnet.mlp2.1.running_var f4 [128]
000000 ea f9 1d 3e 95 9c 42 3e 1d cf c7 3d 69 3c 20 3e
       0.15427366 0.19005044 0.097563006 0.15648045
000010 48 60 b0 3d 79 2c 0d 3e 53 23 de 3d d6 9c ad 3e
       0.08612114 0.13786496 0.10846581 0.3390872
000020 57 de 1a 3e 8b 44 fb 3e 83 1f f2 3c ef 27 39 3e
       0.15123878 0.49075732 0.029556042 0.1808164
000030 7e cd 95 3e dc d3 4e 3e 66 b5 9d 3d 25 88 3b 3e
       0.2925834 0.20198005 0.07700615 0.18313654
000040 68 b7 65 3e e4 76 58 3e 2c d6 c7 3d 4d 67 78 3e
       0.22433245 0.21139103 0.09757647 0.24258156
000050 8c 47 93 3d b6 e4 08 3d f8 55 b0 3d ed 52 12 3e
       0.07191381 0.03342124 0.08610147 0.14289446
000060 94 56 96 3e 4b a8 56 3e 0d 6c cb 3d 84 65 40 3e
       0.2936293 0.20962636 0.099327184 0.18788725
000070 5e 11 95 3d c2 e5 e9 3d a8 72 fc 3d a4 e8 9c 3e
       0.07278703 0.11420776 0.123265564 0.3064624
000080 a4 5d 0a 3e 93 91 c1 3d 95 67 b4 3e 37 9f 81 3e
       0.13512284 0.09451594 0.35235277 0.25316784
000090 43 0f af 3d f7 df aa 3d 13 f5 ac 3d c4 5d 4b 3d
       0.08547833 0.08343499 0.08445182 0.04964997
0000a0 43 8a 3b 3e 05 91 82 3d 2d 6a 75 3e 30 3f 22 3e
       0.18314461 0.063753165 0.23966284 0.15844417
0000b0 f5 68 14 3e fb e4 e5 3d 14 1f 8d 3e 3f 4e f8 3e
       0.14493163 0.11225315 0.27562773 0.48497197
0000c0 b2 0a f3 3d c6 20 a4 3d db 34 af 3d 73 df 3a 3e
       0.11867274 0.080140635 0.08555003 0.18249302
0000d0 d5 53 27 3d e5 ef a9 3e f0 4a 1d 3e 39 4e f6 3d
       0.040851433 0.33190838 0.15360618 0.120266385
0000e0 3e 65 ea 3d 6b 94 75 3e e7 fc c5 3e 50 c0 02 3e
       0.11445092 0.23982398 0.38669512 0.12768674
0000f0 b4 40 ac 3e fe 20 78 3e 99 89 1e 3d fc bd 43 3e
       0.33643115 0.24231336 0.038705442 0.19115442
000100 4b 3a ba 3d 67 1c 1e 3e fd 55 e6 3d 57 00 cd 3e
       0.0909315 0.15440522 0.1124687 0.40039322
000110 d9 79 4a 3e f1 fb e4 3d a4 7e 15 3e 02 22 cf 3d
       0.19773044 0.111808665 0.14599091 0.10113908
000120 47 28 31 3e b0 5d 8d 3d 33 56 2f 3e de 67 9d 3d
       0.17300521 0.06902635 0.17122726 0.07685827
000130 bb 55 56 3d 63 09 c4 3d 9f ab 44 3d 23 d3 62 3d
       0.052327853 0.09572103 0.048015233 0.055377137
000140 7e a9 e5 3d 96 fa 40 3e c5 39 26 3e b0 21 a6 3d
       0.11213969 0.18845591 0.16232975 0.08111894
000150 c6 6c 90 3d 44 7d 85 3e 0e 96 55 3e 62 23 d4 3d
       0.07051997 0.26072133 0.20858023 0.10358311
000160 83 e6 3e 3e 3d dd 82 3e cf 22 2a 3d 01 c6 81 3d
       0.1864262 0.25559416 0.041537102 0.063365944
000170 62 84 95 3d 05 20 85 3e 1e c3 6b 3e 46 35 b5 3d
       0.07300641 0.2600099 0.2302365 0.08848052
000180 ea 6a 8f 3e d6 16 ab 3d 1d 80 02 3e 00 14 42 3e
       0.28011256 0.08353965 0.12744184 0.18952942
000190 49 eb 0d 3e 14 db 8d 3d 6a 4d 3d 3e b9 f5 58 3e
       0.13859285 0.069265515 0.18486562 0.21187486
0001a0 83 2e 7a 3e 87 b8 05 3e db 53 e4 3d 82 6a e5 3d
       0.24431805 0.13058673 0.11148807 0.112019554
0001b0 2a bf 04 3e ee 25 9e 3d 9e 76 8b 3e 81 bc 35 3e
       0.12963548 0.07722078 0.27238935 0.1774769
0001c0 09 16 e7 3d 33 8a 63 3d a4 0a 64 3e ea dc 08 3e
       0.112835 0.05555172 0.22269684 0.13365522
0001d0 89 aa 5c 3e 18 37 f6 3d 8b 37 10 3e ea cd 3c 3e
       0.21549429 0.12022227 0.14083688 0.18437925
0001e0 79 50 4d 3e c2 4b cd 3d dd ab 7c 3d e4 2b a3 3d
       0.20050229 0.10024215 0.06168734 0.07967356
0001f0 fc 71 42 3d 4d 9d 91 3e cf b1 b5 3e 0e 61 f3 3d
       0.047471985 0.28440323 0.3548722 0.11883746

ptnet.mlp3.0.weight f4 [1024, 128, 1]
000000 fb 8d e9 bc ee 3d 92 bd f4 b9 c2 bd f8 56 ca 3c
       -0.028510084 -0.071407184 -0.09508124 0.024699673
000010 0e 63 c6 3c 02 cc 15 3a ac ff b2 bd 83 19 1c bb
       0.024217155 0.00057142985 -0.08740172 -0.0023818917
000020 ae 3a 87 bd 14 d4 b0 bc ea d2 9b 3d 96 36 dc 3c
       -0.06602989 -0.021585502 0.07608588 0.026881497
000030 05 3e 79 3d c6 04 90 bc fc 3f 9c 3d a9 64 fa bc
       0.060850162 -0.017580401 0.076293916 -0.030565577
000040 67 98 44 bd 4b c2 ce 3d e3 39 cd bd 80 89 5c bd
       -0.047996905 0.10095652 -0.10020807 -0.053842068
000050 24 b6 87 bd da cf 03 bc d7 fc 22 bd 32 a6 03 bc
       -0.066265374 -0.008045161 -0.039791908 -0.0080352295
000060 91 7c 0b bd b4 ad 05 bd 83 d5 67 3c 1f 0b e6 bc
       -0.034054343 -0.03263636 0.014150026 -0.028081475
000070 c6 04 e7 bc 07 c4 05 bd b0 62 b5 bd 64 3d 85 bb
       -0.028200518 -0.03265765 -0.08856714 -0.004066156
000080 63 d1 4e 3c 26 d6 70 bd f2 eb 87 3d 29 ba cd bd
       0.012623164 -0.058797978 0.066368 -0.10045273
000090 f2 b9 05 3b e7 c2 33 3d fc fa 78 bb 06 7f 5e bd
       0.0020405021 0.043887045 -0.0037991395 -0.054320358
0000a0 6e 64 69 bd 6e 1b c2 3d 73 1b 8e 3d 8c e8 15 3d
       -0.056980543 0.09477888 0.06938829 0.036598727
0000b0 cd d4 87 bd c6 54 1e bd 8d 4e 88 bd fd 53 18 bd
       -0.066323854 -0.038655065 -0.06655607 -0.037189472
0000c0 3b ab a1 3d 72 b0 90 3d 1c a6 84 3c 0b 11 1d 3d
       0.07893988 0.07064904 0.016192488 0.03834633
0000d0 18 0b 90 3d 2c e9 99 3d 09 26 9f bb 74 7d d6 39
       0.07033366 0.07515177 -0.004856829 0.0004091073
0000e0 b9 53 0b bc c6 1f 57 bc f1 45 32 bd 71 14 5d bc
       -0.008503848 -0.013130134 -0.043523733 -0.013493643
0000f0 4f df 2b bc 53 81 e9 bc 1b 16 4b bb 91 dc 98 3d
       -0.010490253 -0.02850405 -0.0030988518 0.07463945
000100 cb 01 0d bd 1b f4 3c bd 89 7a 7f bd f2 f0 3f 3d
       -0.034425538 -0.046131235 -0.062372718 0.046860643
000110 a7 3b c6 bd 3f e5 a2 3d c2 11 27 3c 3d ce e9 bc
       -0.096793465 0.079538815 0.010197105 -0.028540725
000120 55 df 64 3d 3f f1 86 bd 3b 0b 30 bd 53 91 46 bb
       0.05587705 -0.06588983 -0.04297946 -0.0030299022
000130 84 3d 5a bd 14 0b 59 bd 86 05 de 3c b8 67 ae 3b
       -0.053281322 -0.05298908 0.027102243 0.005322423
000140 cb c5 b8 3d 73 aa b2 3d a5 7e 0d 3d 24 93 78 3d
       0.09022101 0.08723917 0.034544606 0.0606872
000150 f6 83 c5 3d 5b 36 c9 bc 05 ea b8 3c db 0f b5 3d
       0.0964431 -0.024562052 0.022572527 0.08840915
000160 30 2a f4 3c 33 1c 8f 3d c4 9b 5d 3d 8f ac d7 3c
       0.029805273 0.069878004 0.054103628 0.0263274
000170 4f 6f 90 bd 8e bc 5d 3b e1 00 5f 3d fb 91 b3 3c
       -0.070524804 0.0033834311 0.054444198 0.021920195
000180 9d ed 83 bd 6b 13 db 3c 39 c6 9f 3d 30 43 a4 3d
       -0.064418055 0.026742658 0.0780148 0.080206275
000190 83 42 8d bd 45 29 49 3d af f5 47 bd f8 62 a9 3d
       -0.06897452 0.049111623 -0.048818287 0.0827083
0001a0 43 1e 66 bd 3d 85 6d 3d 49 8f 37 3d 93 0f d0 bc
       -0.056181204 0.057988394 0.04481438 -0.025398051
0001b0 44 78 71 bd 3d f0 29 bc 9b 19 89 bd a8 7e 0b 3d
       -0.058952585 -0.010372219 -0.06694337 0.034056336
0001c0 09 97 51 bb 98 d9 a4 3c fd 22 20 bd 32 d8 7a bd
       -0.0031980893 0.020123288 -0.039095867 -0.061241336
0001d0 16 6f 8e 3c 83 89 22 3d af 03 c1 bd 8f 22 ff bc
       0.017386954 0.039681923 -0.09424531 -0.031144409
0001e0 fc 32 0d 3b f2 50 ff 3b 3a 55 2d 3d b0 26 0b 3d
       0.0021545282 0.007791632 0.042317607 0.033972442
0001f0 b2 41 af 3b 7e 9a 4c 3d 44 02 79 3d b8 fc 19 bd
       0.0053484077 0.049952023 0.060793176 -0.037594527
000200 bf 8a a5 3c 4b 83 89 bd a3 86 8b bd 7e 98 44 3d
       0.02020776 -0.06714495 -0.06812789 0.04799699
000210 7e 4a 50 3d dc 63 c7 bd ff 68 58 bd f0 3f aa 3c
       0.05085229 -0.097358435 -0.052834507 0.02078244
000220 27 c3 63 3c 0a f2 36 bd 8f 74 91 3d 4c 43 54 3c
       0.013901508 -0.04466442 0.0710231 0.012955498
000230 ac c1 5a bd ad 1a a3 3d 9d b5 96 bc 74 96 8b bd
       -0.053407356 0.079640724 -0.018397147 -0.06815806
000240 01 6d 8c bc af 61 ca bd 96 98 af 3d 97 6c 59 bd
       -0.01714182 -0.09881913 0.08574025 -0.053082075
000250 d5 cd 85 bd 4b e2 79 3c c6 78 6f bd 9b 67 19 3d
       -0.065334 0.015251706 -0.058464788 0.03745232
000260 62 94 00 3d 95 cf b1 3d 37 98 3a 3d 33 75 b3 3d
       0.03139151 0.08682171 0.04555532 0.08762588
000270 88 fd c6 3c 57 fd 7f 3b 82 7f 43 bd c3 ab 7a 3d
       0.024290815 0.0039060914 -0.047729023 0.06119896
000280 cb 53 6b 3c b8 31 c0 3d 52 a2 98 bd 8d 41 bf 3c
       0.0143632395 0.09384483 -0.07452835 0.023346687
000290 16 8f 80 3d 10 fd 18 bd e4 fa 73 3d 16 52 ad bb
       0.062772915 -0.037350714 0.05956544 -0.0052893264
0002a0 41 e8 2f bd 3b e3 97 bd 1e b4 10 3d 0e 27 9c bc
       -0.042946104 -0.07416388 0.035328023 -0.019061591
0002b0 67 45 ab bd a1 46 e4 3d 02 b8 25 3d 76 43 75 bd
       -0.08362847 0.11146284 0.040458687 -0.05987879
0002c0 32 68 5b bd 9d a8 31 3d a5 cf ca bc f3 a5 ce bc
       -0.053566165 0.043373693 -0.024757216 -0.025225615
0002d0 db c8 8f bd bb 56 87 3c 7b f7 f3 bc 2d dc 9c bc
       -0.07020732 0.016520848 -0.029781094 -0.019147957
0002e0 ec a7 c2 3b 2a 09 81 3d fc c3 3f bd 40 2c 2b 3c
       0.005940428 0.06300576 -0.046817765 0.010447562
0002f0 18 66 b5 3c 48 3d 5b 3d 5c d1 93 3c 5b 41 3b bd
       0.022143409 0.05352524 0.018044166 -0.045716625
000300 ba 91 34 3c 09 d0 a6 bd f3 29 51 3b 73 6b 87 3d
       0.011021072 -0.08145148 0.0031915873 0.06612291
000310 97 1b da bc b1 dd f0 3c f8 61 82 3b 9e 54 db 3c
       -0.026624484 0.029402586 0.003978964 0.026773747
000320 a4 09 62 bd 6b 4f 0c 3d 30 2e 8c 3d 5a 57 1a bd
       -0.055184975 0.034255426 0.06844747 -0.03768096
000330 c6 13 29 bd 9f 36 84 3d fb 48 ba 3c cb d2 35 bd
       -0.041278623 0.06455731 0.022739878 -0.04439048
000340 e8 0a 92 bd 23 55 63 3d eb 22 54 3d 53 ed 7d bd
       -0.071309865 0.055501115 0.051791113 -0.061993908
000350 9b 87 78 bd a7 6b 85 bd f8 8b 5b 3c 6f e4 ed bc
       -0.0606762 -0.06514674 0.01340007 -0.02903959
000360 6b 1e 2b bd 86 61 71 bd f4 2d 8a ba 93 f3 fa 3c
       -0.041777056 -0.058930896 -0.001054226 0.030633723
000370 7d 94 89 bd 9b 08 47 3c 9c 52 9b 3d 97 ca 5e 3d
       -0.06717775 0.012148048 0.07584116 0.054392423
000380 4e 08 99 bd 05 0c 84 3c 4a 46 40 bd 5b 30 13 bd
       -0.07472287 0.016119013 -0.046942033 -0.035934787
000390 55 9f 3f 3d f5 de d4 bd b3 63 56 bc 2d d4 1e 3d
       0.04678281 -0.10394088 -0.013085294 0.038776565
0003a0 36 cf e7 bd f9 8b 8f 3d 4d 7a ec bc b3 a8 3d 3d
       -0.11318819 0.070091195 -0.028866911 0.046303462
0003b0 2f df 7f 3c 87 f3 77 ba e8 88 8d 3c 66 ec 37 3d
       0.015617176 -0.00094585906 0.017277196 0.04490318
0003c0 55 13 c0 3d e1 af 7c bd 53 de cc 3d 9b 58 85 3c
       0.09378687 -0.06169117 0.100033425 0.016277602
0003d0 dd b5 92 3c 5d c2 25 3d 97 bb 12 bd f2 f4 81 3d
       0.017908985 0.040468562 -0.03582343 0.06345548
0003e0 6b 0b 61 bd 9e e6 b1 3c 21 89 81 3b ec 3e 44 3d
       -0.05494253 0.021716412 0.0039531146 0.04791157
0003f0 27 0a b2 3c 2c 81 43 3d 8f 3b 8b 3c 15 c3 f3 3c
       0.021733357 0.04773061 0.016996173 0.029756108
